assets/mnist.tflite (tflite, 116712 bytes, 6 tensors)

sequential/dense/BiasAdd/ReadVariableOp f4 [10]
000000 a3 f8 9b 39 e5 ed 0f 3e 32 10 1c 3d 86 e0 d3 bc
       0.00029749153 0.14055593 0.038101383 -0.025863897
000010 ee 25 0f bd 52 e2 2c 3d 17 4a c0 bc 71 ac 8a 3d
       -0.034948282 0.042208023 -0.023472829 0.06771172
000020 8d 18 00 be fa 3e 0b bd
       -0.12509365 -0.033995606

sequential/conv2d/BiasAdd/ReadVariableOp f4 [32]
000000 fb 6f f0 bc 5a cb 60 bd 90 e0 29 3d 4c f2 46 bc
       -0.029350271 -0.05488143 0.041473925 -0.012142729
000010 67 c7 f6 bc dd 67 9d bd 8f 21 6f 3d 03 0e c4 bd
       -0.03012438 -0.07685826 0.058381613 -0.09572985
000020 53 83 03 bd fc af 27 bd 6d a7 e2 bc fb 4e 57 bc
       -0.032107662 -0.040939316 -0.027667725 -0.013141389
000030 19 25 b5 bd 9c de 46 bc 6b 30 fc bd 65 2d d5 bc
       -0.088449664 -0.012138035 -0.123139225 -0.026022622
000040 e2 e2 90 bc 2e a5 1d bd ba 0a 03 bc 74 77 00 bd
       -0.017686311 -0.038487606 -0.007998163 -0.03136392
000050 c6 80 56 bd f4 3f ea bb ae 39 39 3d 6a d5 85 3b
       -0.0523689 -0.007148737 0.045221023 0.004084279
000060 02 3c f1 bb 29 88 cb bc 15 e6 2c 3d 8e d5 97 bc
       -0.00736189 -0.0248452 0.04221161 -0.018534448
000070 d9 75 38 3d 6f 13 7c 3d e5 68 89 3d e9 ee c1 3d
       0.045034263 0.06154197 0.0670946 0.094693966

sequential/conv2d_1/BiasAdd/ReadVariableOp f4 [64]
000000 b3 c8 20 bd 45 c7 f4 bb 74 f9 21 bd 00 76 e7 bc
       -0.0392539 -0.007470044 -0.039544538 -0.028254509
000010 02 d4 d2 bc a3 bf 02 3c 70 b9 89 bc 5c 8c 25 3d
       -0.025735859 0.00798026 -0.016812056 0.04041706
000020 1b 93 4c 3c 7d af 24 3c ec 42 d0 bb 0a 10 9c bd
       0.012486245 0.010051605 -0.006355634 -0.07620247
000030 7a e9 92 3c f2 ed ef bb cb 6a 8b 3c 24 89 47 bd
       0.017933596 -0.0073220665 0.017018696 -0.048714772
000040 49 c2 df bc c8 83 84 3a 7e d9 df bc ca bd 7c bd
       -0.027314322 0.0010110075 -0.027325388 -0.061704434
000050 b9 b4 2f bd 3f 6c 83 bc a3 e7 34 bd 2e 57 ea bc
       -0.04289696 -0.016042827 -0.04416622 -0.028606024
000060 35 56 df bc 98 d3 8a bd a1 4f 44 bd 40 52 0d bc
       -0.027262786 -0.067786396 -0.047927503 -0.008625567
000070 04 64 d6 bc cb 16 7c bd 6e 33 57 bd a2 b8 6a bb
       -0.026170738 -0.061545175 -0.05253928 -0.0035815616
000080 f6 e0 a9 bc 34 37 08 bd a8 79 25 3d 20 de 6e bc
       -0.020737153 -0.03325577 0.040399224 -0.014579326
000090 17 7b 28 3c ab 84 b0 bc e3 05 2b 3c 49 13 29 bc
       0.010283253 -0.021547636 0.010438415 -0.010319539
0000a0 a2 b2 4d bd 98 3e 67 bd cf c1 41 3c c7 df 82 bc
       -0.050219186 -0.05645618 0.011825993 -0.015975846
0000b0 b4 4c 01 bd 08 6d ab bb 90 9d d5 3c 91 14 12 bd
       -0.03156729 -0.0052315034 0.026076108 -0.035664145
0000c0 af 4a 3a bc e5 4e 7b bd 38 44 4b bb 02 f8 21 3b
       -0.011370345 -0.061354537 -0.0031016003 0.0024714475
0000d0 d5 eb 60 bc 38 3f 91 bc 40 c5 0d bc 88 c4 1f bd
       -0.013728102 -0.01773034 -0.008652985 -0.039005786
0000e0 92 0a 16 bd d4 f2 06 bc 90 d2 17 bd 33 6c fd 3a
       -0.036631174 -0.008236606 -0.037066042 0.0019334614
0000f0 a3 ff 49 bd 2f 7f fa bc 2d cb d3 bc 99 90 12 bd
       -0.04931606 -0.030578224 -0.025853718 -0.03578243

sequential/conv2d/Conv2D f4 [32, 3, 3, 1]
000000 01 39 06 be 58 25 20 bc 89 cc e1 bd d2 92 88 3d
       -0.13107683 -0.009774528 -0.1102534 0.06668629
000010 a6 61 44 3e c9 a6 50 3d 0c 7a 63 be 97 61 a0 3d
       0.19177875 0.05094031 -0.22214526 0.07831114
000020 4a c3 33 3c 85 37 c2 3b 04 5e 71 3d 2a d1 bc 3d
       0.0109718535 0.0059270286 0.05892755 0.092195824
000030 e0 9f 4b be 09 6a ee bd e2 b8 79 3d 71 de 37 3d
       -0.19885206 -0.11641318 0.060967334 0.04488987
000040 61 f2 05 bd 3a e9 30 3e 21 ff 9d be 72 e6 18 be
       -0.032701854 0.17276469 -0.3085871 -0.14931658
000050 df bc d7 bb 90 fd 95 bb 97 18 8a bd a8 5e 04 be
       -0.0065837945 -0.004577346 -0.067429714 -0.12926733
000060 35 8b c9 3e 35 64 9e 3d 87 c6 a8 bd ff 05 32 be
       0.3936402 0.07733957 -0.08240991 -0.173851
000070 b4 71 97 be 55 eb 6c bd f1 d5 19 3e b0 a6 a7 bd
       -0.29578936 -0.057841618 0.15023018 -0.0818609
000080 61 85 8b 3e 76 02 78 3e 20 03 a4 3d 49 af 5a 3c
       0.27250198 0.24219689 0.080084085 0.013347455
000090 85 0b 8e 3d 37 9a f1 3d d1 80 34 3e ae 15 fa 3d
       0.06935791 0.11796992 0.17627265 0.12211166
0000a0 40 ed 94 3d ff 37 32 3c bb 14 ca bd 64 d8 1c be
       0.07271814 0.010877608 -0.09867235 -0.15316921
0000b0 89 bf 72 be d8 39 36 be 62 f0 f6 3d 66 f9 70 bd
       -0.23705877 -0.17795503 0.12057568 -0.058831595
0000c0 1e 75 96 bd 3a 1c 38 3e 0b 9e a9 3d 5e c3 55 be
       -0.07346557 0.17979518 0.082820974 -0.20875308
0000d0 eb 48 5f 3d 79 10 cf 3d e5 a1 45 be e0 68 50 be
       0.0545129 0.10110564 -0.19300039 -0.20352507
0000e0 e9 c4 4b be b1 10 d3 3d 38 37 4d bd 86 02 85 3d
       -0.19899334 0.10305918 -0.05010149 0.06494622
0000f0 e4 04 9e 3e 3c ef 1f 3e 97 97 7a bd 2e 56 cf 3d
       0.30863106 0.15618604 -0.061179724 0.10123859
000100 71 29 93 bd 64 64 05 3e 55 d5 04 be c9 cb ed 3d
       -0.07185639 0.13026577 -0.12972005 0.116111346
000110 22 53 1e 3d 32 9f 67 bd 70 04 89 3d ae ef 91 3c
       0.0386535 -0.056548305 0.066902995 0.017814483
000120 6c cd b9 3d f5 25 e9 ba d8 4a 43 3e dd 7e 74 3d
       0.09072384 -0.0017787801 0.1907152 0.0596913
000130 92 d9 fe 3c e6 5f 5b be b0 91 18 3e 89 cb a8 3d
       0.031109605 -0.21423301 0.14899325 0.08241946
000140 35 fe 4f be 36 fd 4e bd 67 9e 06 be e5 8b 07 bd
       -0.20311816 -0.05053445 -0.13146363 -0.0330924
000150 17 2c 5f 3d 3d 8b 81 3b b5 b9 45 3e 50 58 3b be
       0.054485407 0.003953366 0.19309123 -0.18295407
000160 48 65 01 3e fb b0 48 3e fa 29 46 3e 07 66 62 bd
       0.12636292 0.19598763 0.1935195 -0.055273082
000170 6e 66 c8 be 79 00 65 3e 49 53 ec 3d 4b 5c 26 be
       -0.39140648 0.22363462 0.11539323 -0.16246144
000180 e1 19 71 bd 89 56 8c 3e a6 7b ac bb 34 37 27 bc
       -0.05886257 0.2740977 -0.0052637635 -0.010206033
000190 1e c4 ca bd aa 21 52 be 6e 4c 6a 3e 18 51 f9 3d
       -0.09900688 -0.20520654 0.22880718 0.121736705
0001a0 26 f4 2f be f9 bf 20 3d 90 fc 46 3e 96 ce be 3d
       -0.17182979 0.03924558 0.19432282 0.09316747
0001b0 c8 e3 d3 3d 5a f7 31 3d d8 cc 74 bc f2 92 97 bd
       0.1034618 0.043448783 -0.014941417 -0.074010745
0001c0 43 f9 d9 3d d1 6c 49 be 32 cd 91 3b 7c 56 91 bd
       0.10643246 -0.19670416 0.00444951 -0.07096574
0001d0 00 a4 e9 3b c1 de ac bd bf 55 3c 3e 86 ed 8e 3e
       0.007130146 -0.084409244 0.18392085 0.2791559
0001e0 8b 0f 1c be e5 a6 c8 3c 07 98 88 3e b4 7e 68 be
       -0.15240304 0.024493644 0.26678488 -0.22704583
0001f0 c9 83 69 bd a8 32 a5 3d ca 96 52 be 15 25 09 3d
       -0.057010446 0.080663025 -0.20565334 0.03348263
000200 c7 b7 ae 3c 8f 67 4b 3d 37 21 2b 3d b2 e9 65 3d
       0.021327866 0.049659308 0.041779723 0.056131072
000210 30 cb ad 3d b3 4e 22 bd e8 14 f1 3c 7c 61 ed 3d
       0.084860206 -0.039625835 0.029428914 0.11590859
000220 cf 20 c7 ba 1b 52 3d be de c2 2b 3d 7b 6d 8c 3e
       -0.0015192273 -0.18488352 0.041933887 0.27427277
000230 c6 20 c9 bc b6 2d 85 be 0e 51 b4 3d 51 14 ff 3c
       -0.02455176 -0.26011437 0.088045225 0.031137617
000240 46 f1 80 3c 0b 80 f6 bb 32 ff c3 be d1 25 22 3e
       0.015740048 -0.007522588 -0.38280636 0.15834738
000250 5a fc 7d 3d 5e 66 ef bd 51 bf 73 3e a1 62 9b 3d
       0.06200824 -0.11689447 0.2380345 0.07587171
000260 3f 32 17 3e 7b 10 73 3d c5 78 4d bd 9a 88 be be
       0.14765261 0.05934189 -0.050164003 -0.37213594
000270 8d 1d 1b 3e 66 2b 4f 3d 6b 1d 57 bd 0b e8 13 3d
       0.15147991 0.050578497 -0.05251829 0.036109965
000280 7a 2e e6 3d 0e 15 1e 3e 30 b1 9d be 3b 91 9d bd
       0.112393335 0.15437719 -0.30799246 -0.07693716
000290 77 4e 09 bd 5c 67 c3 3d eb 44 8f 3e 9b 3e 36 3d
       -0.033522096 0.095411986 0.27982268 0.0444933
0002a0 84 f0 50 3e 0e de 2a 3d db e8 0c be 8e 75 e3 3d
       0.2040425 0.041715674 -0.13760702 0.11106406
0002b0 f1 2f 18 3d 5a 3c 59 be 38 d2 64 3e 90 a2 ef bd
       0.037155095 -0.21214429 0.22345817 -0.11700928
0002c0 b1 d6 a1 bd db 07 2b 3d b2 6e 98 3d fa 66 5e bd
       -0.07902277 0.04175554 0.074429885 -0.054297425
0002d0 f3 c7 0f bd 7a 18 c8 bd 0e 26 0a be cf b6 3f 3e
       -0.035102796 -0.097702935 -0.13491079 0.1872208
0002e0 b8 6d ee 3d 51 ca 53 bd de e2 44 3e 8a fa a9 bd
       0.11642021 -0.051706616 0.19227168 -0.0829974
0002f0 1b 10 97 3d d5 9e f3 bd ea ba e6 bd 38 2a ba bd
       0.07376119 -0.11895529 -0.1126612 -0.09090084
000300 ac f3 82 bd 42 86 d7 bd 6b ed 54 3d 95 08 b9 bc
       -0.06394133 -0.105236545 0.051984232 -0.0225871
000310 31 1e 47 3e 7f a4 83 3e fc 6d ae 3c 67 ee 59 3e
       0.19445111 0.25711438 0.021292679 0.2128235
000320 86 c0 41 3e 1d 59 ac be da 36 c6 be 94 39 39 bd
       0.18921098 -0.33661738 -0.38713723 -0.045220926
000330 19 f5 4d 3e fe 1a 74 3b ed 07 ef bd 78 93 d9 3d
       0.20113029 0.0037247534 -0.116714336 0.106238306
000340 63 88 0a 3e 94 1b 27 3e 23 8a 9a be 99 41 cd be
       0.1352859 0.16319114 -0.30183515 -0.4008911
000350 8f 41 9c be 6b 8d 15 3e 8e d5 79 3e 5b 0b 75 3d
       -0.30518767 0.14604728 0.24397871 0.059825283
000360 8c 06 38 3c 8d 1d 89 3e 42 a0 fc bc ea b5 ca 3c
       0.01123203 0.26780358 -0.030838136 0.024744947
000370 ac 3c 44 3d 65 20 5a be fd 90 91 3e 8e 1e be 3c
       0.047909424 -0.2130142 0.2843093 0.023207929
000380 4a 19 92 be 54 2f ae be ab 80 2e be 57 0d 1f 3e
       -0.2853492 -0.34020483 -0.1704127 0.15532432
000390 56 29 4f be a8 05 d8 3d c9 be 8d 3d 68 9f ab bd
       -0.20230612 0.10547954 0.06921155 -0.08380014
0003a0 83 b9 19 3d e3 61 ae 3e 05 6c 74 3e 93 f9 b3 bc
       0.037530433 0.34059057 0.23869331 -0.021969592
0003b0 85 c8 bb be f5 b3 5b 3e c3 e9 c5 bd dc 10 bb be
       -0.36676422 0.21455367 -0.09663727 -0.365363
0003c0 85 96 a5 bd 3d ce b4 be fb a0 b0 bc 26 97 6c be
       -0.0808535 -0.35313597 -0.021561136 -0.23104534
0003d0 da 22 52 3d 2e 96 62 bc 0d d6 43 3c 98 e9 27 3e
       0.05130277 -0.013829751 0.011952889 0.16397703
0003e0 f9 38 d2 bd 05 5e de 3e 52 a4 0b 3d 0d 89 83 be
       -0.10264773 0.43431106 0.034092255 -0.256905
0003f0 5d 60 e5 3d 90 c0 22 3e 87 4e 83 3e 9d 99 90 3d
       0.112000205 0.1589377 0.2564585 0.070605494

sequential/conv2d_1/Conv2D i1 [64, 3, 3, 32]
000000 e9 08 e0 cd fc 1f e4 19 8b ff 01 01 fc 14 e5 f2
       -23 8 -32 -51 -4 31 -28 25 -117 -1 1 1 -4 20 -27 -14
000010 d5 fa e8 ef f1 f3 0a dc 82 0e da d8 24 d3 c3 de
       -43 -6 -24 -17 -15 -13 10 -36 -126 14 -38 -40 36 -45 -61 -34
000020 f8 e6 ef d9 f4 f2 d5 0d ec f9 25 07 ed 17 02 30
       -8 -26 -17 -39 -12 -14 -43 13 -20 -7 37 7 -19 23 2 48
000030 0f 20 db 03 ed e3 d2 a6 db e3 05 e7 01 cd 82 d2
       15 32 -37 3 -19 -29 -46 -90 -37 -29 5 -25 1 -51 -126 -46
000040 1e e4 e2 11 0e fd cb dd fa fd 30 0b fe e3 fc 29
       30 -28 -30 17 14 -3 -53 -35 -6 -3 48 11 -2 -29 -4 41
000050 1b 24 f8 17 16 da d4 c0 16 d4 36 ee bd 1d e8 d0
       27 36 -8 23 22 -38 -44 -64 22 -44 54 -18 -67 29 -24 -48
000060 c0 19 14 cd 05 f8 d2 fc a6 ff f8 f6 f2 10 e4 b8
       -64 25 20 -51 5 -8 -46 -4 -90 -1 -8 -10 -14 16 -28 -72
000070 f9 fd ba cf dc f2 14 d0 a4 15 f5 d3 ff e1 cd e0
       -7 -3 -70 -49 -36 -14 20 -48 -92 21 -11 -45 -1 -31 -51 -32
000080 fa 08 f0 c7 fa 08 db 1c da fc e1 ce 03 11 07 10
       -6 8 -16 -57 -6 8 -37 28 -38 -4 -31 -50 3 17 7 16
000090 d7 00 b2 e8 fb f0 d1 c0 c1 fa fd cc 18 ff ae d8
       -41 0 -78 -24 -5 -16 -47 -64 -63 -6 -3 -52 24 -1 -82 -40
0000a0 f3 f6 d4 f9 14 0b dc eb f7 ee 1c 15 f7 07 11 08
       -13 -10 -44 -7 20 11 -36 -21 -9 -18 28 21 -9 7 17 8
0000b0 14 18 ce fa fe f0 c1 d4 e0 e2 e7 da d9 c5 c3 f4
       20 24 -50 -6 -2 -16 -63 -44 -32 -30 -25 -38 -39 -59 -61 -12
0000c0 e8 ed ef f2 f7 e2 d7 ff d7 e4 fc dc f8 fe e3 e2
       -24 -19 -17 -14 -9 -30 -41 -1 -41 -28 -4 -36 -8 -2 -29 -30
0000d0 f8 f0 d5 ea f1 da eb b8 d2 04 e0 ee f4 b6 ce e2
       -8 -16 -43 -22 -15 -38 -21 -72 -46 4 -32 -18 -12 -74 -50 -30
0000e0 f5 22 f7 e8 f2 18 bc ee b0 ff e0 d4 eb 15 04 ce
       -11 34 -9 -24 -14 24 -68 -18 -80 -1 -32 -44 -21 21 4 -50
0000f0 fa da e4 ed df ef ec c4 c9 27 e9 e5 1c f5 ce ea
       -6 -38 -28 -19 -33 -17 -20 -60 -55 39 -23 -27 28 -11 -50 -22

sequential/dense/MatMul i1 [10, 9216] scale=0.004647794 zero_point=0
000000 f9 fe f9 f1 fe e6 fa e7 24 e6 16 fe 16 fe d8 f7
       -0.03253456 -0.009295588 -0.03253456 -0.069716915 -0.009295588 -0.12084265 -0.027886765 -0.11619485 0.1673206 -0.12084265 0.10225147 -0.009295588 0.10225147 -0.009295588 -0.18591177 -0.04183015
000010 f9 15 02 fb f9 fa f9 f9 f9 f3 fd f8 03 fc 00 12
       -0.03253456 0.09760368 0.009295588 -0.023238972 -0.03253456 -0.027886765 -0.03253456 -0.03253456 -0.03253456 -0.060421325 -0.013943383 -0.037182353 0.013943383 -0.018591177 0.0 0.0836603
000020 ff f6 f8 fd 02 fc f6 04 fa fc 05 02 03 f6 fb fe
       -0.004647794 -0.046477944 -0.037182353 -0.013943383 0.009295588 -0.018591177 -0.046477944 0.018591177 -0.027886765 -0.018591177 0.023238972 0.009295588 0.013943383 -0.046477944 -0.023238972 -0.009295588
000030 fe f3 fe e5 f8 f8 0a f9 fd f4 00 ff fe 0d 21 f5
       -0.009295588 -0.060421325 -0.009295588 -0.12549044 -0.037182353 -0.037182353 0.046477944 -0.03253456 -0.013943383 -0.05577353 0.0 -0.004647794 -0.009295588 0.060421325 0.1533772 -0.051125735
000040 ed 0a fb e3 ff fa fb ff 08 e8 ea f7 18 fe f6 f4
       -0.08830809 0.046477944 -0.023238972 -0.13478602 -0.004647794 -0.027886765 -0.023238972 -0.004647794 0.037182353 -0.11154706 -0.10225147 -0.04183015 0.11154706 -0.009295588 -0.046477944 -0.05577353
000050 fa 10 eb f7 ff f2 da f5 00 ea fb 09 01 fe f5 0d
       -0.027886765 0.07436471 -0.09760368 -0.04183015 -0.004647794 -0.06506912 -0.17661618 -0.051125735 0.0 -0.10225147 -0.023238972 0.04183015 0.004647794 -0.009295588 -0.051125735 0.060421325
000060 f5 f0 db e9 e1 0b f5 05 fa f4 fa f6 00 fa f4 de
       -0.051125735 -0.07436471 -0.17196839 -0.10689927 -0.14408162 0.051125735 -0.051125735 0.023238972 -0.027886765 -0.05577353 -0.027886765 -0.046477944 0.0 -0.027886765 -0.05577353 -0.158025
000070 f5 f5 de ee f6 fd f7 fa f2 f2 f3 f6 fb 03 14 01
       -0.051125735 -0.051125735 -0.158025 -0.0836603 -0.046477944 -0.013943383 -0.04183015 -0.027886765 -0.06506912 -0.06506912 -0.060421325 -0.046477944 -0.023238972 0.013943383 0.09295589 0.004647794
000080 f3 f6 ff f2 f7 fd 00 05 16 f9 f0 e9 1a fd 02 e6
       -0.060421325 -0.046477944 -0.004647794 -0.06506912 -0.04183015 -0.013943383 0.0 0.023238972 0.10225147 -0.03253456 -0.07436471 -0.10689927 0.12084265 -0.013943383 0.009295588 -0.12084265
000090 f5 0c f1 f6 fc ef f3 fd fb f3 fa fa f4 01 ef 17
       -0.051125735 0.05577353 -0.069716915 -0.046477944 -0.018591177 -0.0790125 -0.060421325 -0.013943383 -0.023238972 -0.060421325 -0.027886765 -0.027886765 -0.05577353 0.004647794 -0.0790125 0.10689927
0000a0 fe 06 fc f3 ec f8 ed fc f2 eb e3 f6 fa f6 f9 ff
       -0.009295588 0.027886765 -0.018591177 -0.060421325 -0.09295589 -0.037182353 -0.08830809 -0.018591177 -0.06506912 -0.09760368 -0.13478602 -0.046477944 -0.027886765 -0.046477944 -0.03253456 -0.004647794
0000b0 e7 0e de ee fb f6 e9 fa f5 04 ef f8 fb 01 17 ee
       -0.11619485 0.06506912 -0.158025 -0.0836603 -0.023238972 -0.046477944 -0.10689927 -0.027886765 -0.051125735 0.018591177 -0.0790125 -0.037182353 -0.023238972 0.004647794 0.10689927 -0.0836603
0000c0 f9 e5 e9 f6 0b ed ec ff 16 e1 ef 08 f0 f3 07 e7
       -0.03253456 -0.12549044 -0.10689927 -0.046477944 0.051125735 -0.08830809 -0.09295589 -0.004647794 0.10225147 -0.14408162 -0.0790125 0.037182353 -0.07436471 -0.060421325 0.03253456 -0.11619485
0000d0 f0 01 e3 f8 f5 f4 fc e4 fb f8 f8 0e ed f3 f7 1b
       -0.07436471 0.004647794 -0.13478602 -0.037182353 -0.051125735 -0.05577353 -0.018591177 -0.13013823 -0.023238972 -0.037182353 -0.037182353 0.06506912 -0.08830809 -0.060421325 -0.04183015 0.12549044
0000e0 fb f9 dd f6 ea 04 f1 f3 d6 ea 00 fc 02 f7 fa f5
       -0.023238972 -0.03253456 -0.1626728 -0.046477944 -0.10225147 0.018591177 -0.069716915 -0.060421325 -0.19520736 -0.10225147 0.0 -0.018591177 0.009295588 -0.04183015 -0.027886765 -0.051125735
0000f0 f5 10 e1 e9 00 f6 0b f8 fe 0a fd ec fc 0b 08 02
       -0.051125735 0.07436471 -0.14408162 -0.10689927 0.0 -0.046477944 0.051125735 -0.037182353 -0.009295588 0.046477944 -0.013943383 -0.09295589 -0.018591177 0.051125735 0.037182353 0.009295588
